…
            "WARNING:tensorflow:From /tensorflow-1.15.2/python3.6/tensorflow_core/python/ops/nn_impl.py:183: where (from tensorflow.python.ops.array_ops) is deprecated and will be removed in a future version.\n",
            "Instructions for updating:\n",
            "Use tf.where in 2.0, which has the same broadcast rule as np.where\n",
            "Model: \"model\"\n",
            "__________________________________________________________________________________________________\n",
            "Layer (type)                    Output Shape         Param #     Connected to                     \n",
            "==================================================================================================\n",
            "input_1 (InputLayer)            [(None, 256, 256, 3) 0                                            \n",
            "__________________________________________________________________________________________________\n",
            "conv2d (Conv2D)                 (None, 256, 256, 32) 896         input_1[0][0]                    \n",
            "__________________________________________________________________________________________________\n",
            "batch_normalization (BatchNorma (None, 256, 256, 32) 128         conv2d[0][0]                     \n",
            "__________________________________________________________________________________________________\n",
            "activation (Activation)         (None, 256, 256, 32) 0           batch_normalization[0][0]        \n",
            "__________________________________________________________________________________________________\n",
            "conv2d_1 (Conv2D)               (None, 256, 256, 32) 9248        activation[0][0]                 \n",
            "__________________________________________________________________________________________________\n",
            "batch_normalization_1 (BatchNor (None, 256, 256, 32) 128         conv2d_1[0][0]                   \n",
            "__________________________________________________________________________________________________\n",
            "activation_1 (Activation)       (None, 256, 256, 32) 0           batch_normalization_1[0][0]      \n",
            "__________________________________________________________________________________________________\n",
            "max_pooling2d (MaxPooling2D)    (None, 128, 128, 32) 0           activation_1[0][0]               \n",
            "__________________________________________________________________________________________________\n",
            "conv2d_2 (Conv2D)               (None, 128, 128, 64) 18496       max_pooling2d[0][0]              \n",
            "__________________________________________________________________________________________________\n",
            "batch_normalization_2 (BatchNor (None, 128, 128, 64) 256         conv2d_2[0][0]                   \n",
            "__________________________________________________________________________________________________\n",
            "activation_2 (Activation)       (None, 128, 128, 64) 0           batch_normalization_2[0][0]      \n",
            "__________________________________________________________________________________________________\n",
            "conv2d_3 (Conv2D)               (None, 128, 128, 64) 36928       activation_2[0][0]               \n",
            "__________________________________________________________________________________________________\n",
            "batch_normalization_3 (BatchNor (None, 128, 128, 64) 256         conv2d_3[0][0]                   \n",
            "__________________________________________________________________________________________________\n",
            "activation_3 (Activation)       (None, 128, 128, 64) 0           batch_normalization_3[0][0]      \n",
            "__________________________________________________________________________________________________\n",
            "max_pooling2d_1 (MaxPooling2D)  (None, 64, 64, 64)   0           activation_3[0][0]               \n",
            "__________________________________________________________________________________________________\n",
            "conv2d_4 (Conv2D)               (None, 64, 64, 128)  73856       max_pooling2d_1[0][0]            \n",
            "__________________________________________________________________________________________________\n",
            "batch_normalization_4 (BatchNor (None, 64, 64, 128)  512         conv2d_4[0][0]                   \n",
            "__________________________________________________________________________________________________\n",
            "activation_4 (Activation)       (None, 64, 64, 128)  0           batch_normalization_4[0][0]      \n",
            "__________________________________________________________________________________________________\n",
            "conv2d_5 (Conv2D)               (None, 64, 64, 128)  147584      activation_4[0][0]               \n",
            "__________________________________________________________________________________________________\n",
            "batch_normalization_5 (BatchNor (None, 64, 64, 128)  512         conv2d_5[0][0]                   \n",
            "__________________________________________________________________________________________________\n",
            "activation_5 (Activation)       (None, 64, 64, 128)  0           batch_normalization_5[0][0]      \n",
            "__________________________________________________________________________________________________\n",
            "max_pooling2d_2 (MaxPooling2D)  (None, 32, 32, 128)  0           activation_5[0][0]               \n",
            "__________________________________________________________________________________________________\n",
            "conv2d_6 (Conv2D)               (None, 32, 32, 256)  295168      max_pooling2d_2[0][0]            \n",
            "__________________________________________________________________________________________________\n",
            "batch_normalization_6 (BatchNor (None, 32, 32, 256)  1024        conv2d_6[0][0]                   \n",
            "__________________________________________________________________________________________________\n",
            "activation_6 (Activation)       (None, 32, 32, 256)  0           batch_normalization_6[0][0]      \n",
            "__________________________________________________________________________________________________\n",
            "conv2d_7 (Conv2D)               (None, 32, 32, 256)  590080      activation_6[0][0]               \n",
            "__________________________________________________________________________________________________\n",
            "batch_normalization_7 (BatchNor (None, 32, 32, 256)  1024        conv2d_7[0][0]                   \n",
            "__________________________________________________________________________________________________\n",
            "activation_7 (Activation)       (None, 32, 32, 256)  0           batch_normalization_7[0][0]      \n",
            "__________________________________________________________________________________________________\n",
            "max_pooling2d_3 (MaxPooling2D)  (None, 16, 16, 256)  0           activation_7[0][0]               \n",
            "__________________________________________________________________________________________________\n",
            "conv2d_8 (Conv2D)               (None, 16, 16, 512)  1180160     max_pooling2d_3[0][0]            \n",
            "__________________________________________________________________________________________________\n",
            "batch_normalization_8 (BatchNor (None, 16, 16, 512)  2048        conv2d_8[0][0]                   \n",
            "__________________________________________________________________________________________________\n",
            "activation_8 (Activation)       (None, 16, 16, 512)  0           batch_normalization_8[0][0]      \n",
            "__________________________________________________________________________________________________\n",
            "conv2d_9 (Conv2D)               (None, 16, 16, 512)  2359808     activation_8[0][0]               \n",
            "__________________________________________________________________________________________________\n",
            "batch_normalization_9 (BatchNor (None, 16, 16, 512)  2048        conv2d_9[0][0]                   \n",
            "__________________________________________________________________________________________________\n",
            "activation_9 (Activation)       (None, 16, 16, 512)  0           batch_normalization_9[0][0]      \n",
            "__________________________________________________________________________________________________\n",
            "max_pooling2d_4 (MaxPooling2D)  (None, 8, 8, 512)    0           activation_9[0][0]               \n",
            "__________________________________________________________________________________________________\n",
            "conv2d_10 (Conv2D)              (None, 8, 8, 1024)   4719616     max_pooling2d_4[0][0]            \n",
            "__________________________________________________________________________________________________\n",
            "batch_normalization_10 (BatchNo (None, 8, 8, 1024)   4096        conv2d_10[0][0]                  \n",
            "__________________________________________________________________________________________________\n",
            "activation_10 (Activation)      (None, 8, 8, 1024)   0           batch_normalization_10[0][0]     \n",
            "__________________________________________________________________________________________________\n",
            "conv2d_11 (Conv2D)              (None, 8, 8, 1024)   9438208     activation_10[0][0]              \n",
            "__________________________________________________________________________________________________\n",
            "batch_normalization_11 (BatchNo (None, 8, 8, 1024)   4096        conv2d_11[0][0]                  \n",
            "__________________________________________________________________________________________________\n",
            "activation_11 (Activation)      (None, 8, 8, 1024)   0           batch_normalization_11[0][0]     \n",
            "__________________________________________________________________________________________________\n",
            "conv2d_transpose (Conv2DTranspo (None, 16, 16, 512)  2097664     activation_11[0][0]              \n",
            "__________________________________________________________________________________________________\n",
            "concatenate (Concatenate)       (None, 16, 16, 1024) 0           activation_9[0][0]               \n",
            "                                                                 conv2d_transpose[0][0]           \n",
            "__________________________________________________________________________________________________\n",
            "batch_normalization_12 (BatchNo (None, 16, 16, 1024) 4096        concatenate[0][0]                \n",
            "__________________________________________________________________________________________________\n",
            "activation_12 (Activation)      (None, 16, 16, 1024) 0           batch_normalization_12[0][0]     \n",
            "__________________________________________________________________________________________________\n",
            "conv2d_12 (Conv2D)              (None, 16, 16, 512)  4719104     activation_12[0][0]              \n",
            "__________________________________________________________________________________________________\n",
            "batch_normalization_13 (BatchNo (None, 16, 16, 512)  2048        conv2d_12[0][0]                  \n",
            "__________________________________________________________________________________________________\n",
            "activation_13 (Activation)      (None, 16, 16, 512)  0           batch_normalization_13[0][0]     \n",
            "__________________________________________________________________________________________________\n",
            "conv2d_13 (Conv2D)              (None, 16, 16, 512)  2359808     activation_13[0][0]              \n",
            "__________________________________________________________________________________________________\n",
            "batch_normalization_14 (BatchNo (None, 16, 16, 512)  2048        conv2d_13[0][0]                  \n",
            "__________________________________________________________________________________________________\n",
            "activation_14 (Activation)      (None, 16, 16, 512)  0           batch_normalization_14[0][0]     \n",
            "__________________________________________________________________________________________________\n",
            "conv2d_transpose_1 (Conv2DTrans (None, 32, 32, 256)  524544      activation_14[0][0]              \n",
            "__________________________________________________________________________________________________\n",
            "concatenate_1 (Concatenate)     (None, 32, 32, 512)  0           activation_7[0][0]               \n",
            "                                                                 conv2d_transpose_1[0][0]         \n",
            "__________________________________________________________________________________________________\n",
            "batch_normalization_15 (BatchNo (None, 32, 32, 512)  2048        concatenate_1[0][0]              \n",
            "__________________________________________________________________________________________________\n",
            "activation_15 (Activation)      (None, 32, 32, 512)  0           batch_normalization_15[0][0]     \n",
            "__________________________________________________________________________________________________\n",
            "conv2d_14 (Conv2D)              (None, 32, 32, 256)  1179904     activation_15[0][0]              \n",
            "__________________________________________________________________________________________________\n",
            "batch_normalization_16 (BatchNo (None, 32, 32, 256)  1024        conv2d_14[0][0]                  \n",
            "__________________________________________________________________________________________________\n",
            "activation_16 (Activation)      (None, 32, 32, 256)  0           batch_normalization_16[0][0]     \n",
            "__________________________________________________________________________________________________\n",
            "conv2d_15 (Conv2D)              (None, 32, 32, 256)  590080      activation_16[0][0]              \n",
            "__________________________________________________________________________________________________\n",
            "batch_normalization_17 (BatchNo (None, 32, 32, 256)  1024        conv2d_15[0][0]                  \n",
            "__________________________________________________________________________________________________\n",
            "activation_17 (Activation)      (None, 32, 32, 256)  0           batch_normalization_17[0][0]     \n",
            "__________________________________________________________________________________________________\n",
            "conv2d_transpose_2 (Conv2DTrans (None, 64, 64, 128)  131200      activation_17[0][0]              \n",
            "__________________________________________________________________________________________________\n",
            "concatenate_2 (Concatenate)     (None, 64, 64, 256)  0           activation_5[0][0]               \n",
            "                                                                 conv2d_transpose_2[0][0]         \n",
            "__________________________________________________________________________________________________\n",
            "batch_normalization_18 (BatchNo (None, 64, 64, 256)  1024        concatenate_2[0][0]              \n",
            "__________________________________________________________________________________________________\n",
            "activation_18 (Activation)      (None, 64, 64, 256)  0           batch_normalization_18[0][0]     \n",
            "__________________________________________________________________________________________________\n",
            "conv2d_16 (Conv2D)              (None, 64, 64, 128)  295040      activation_18[0][0]              \n",
            "__________________________________________________________________________________________________\n",
            "batch_normalization_19 (BatchNo (None, 64, 64, 128)  512         conv2d_16[0][0]                  \n",
            "__________________________________________________________________________________________________\n",
            "activation_19 (Activation)      (None, 64, 64, 128)  0           batch_normalization_19[0][0]     \n",
            "__________________________________________________________________________________________________\n",
            "conv2d_17 (Conv2D)              (None, 64, 64, 128)  147584      activation_19[0][0]              \n",
            "__________________________________________________________________________________________________\n",
            "batch_normalization_20 (BatchNo (None, 64, 64, 128)  512         conv2d_17[0][0]                  \n",
            "__________________________________________________________________________________________________\n",
            "activation_20 (Activation)      (None, 64, 64, 128)  0           batch_normalization_20[0][0]     \n",
            "__________________________________________________________________________________________________\n",
            "conv2d_transpose_3 (Conv2DTrans (None, 128, 128, 64) 32832       activation_20[0][0]              \n",
            "__________________________________________________________________________________________________\n",
            "concatenate_3 (Concatenate)     (None, 128, 128, 128 0           activation_3[0][0]               \n",
            "                                                                 conv2d_transpose_3[0][0]         \n",
            "__________________________________________________________________________________________________\n",
            "batch_normalization_21 (BatchNo (None, 128, 128, 128 512         concatenate_3[0][0]              \n",
            "__________________________________________________________________________________________________\n",
            "activation_21 (Activation)      (None, 128, 128, 128 0           batch_normalization_21[0][0]     \n",
            "__________________________________________________________________________________________________\n",
            "conv2d_18 (Conv2D)              (None, 128, 128, 64) 73792       activation_21[0][0]              \n",
            "__________________________________________________________________________________________________\n",
            "batch_normalization_22 (BatchNo (None, 128, 128, 64) 256         conv2d_18[0][0]                  \n",
            "__________________________________________________________________________________________________\n",
            "activation_22 (Activation)      (None, 128, 128, 64) 0           batch_normalization_22[0][0]     \n",
            "__________________________________________________________________________________________________\n",
            "conv2d_19 (Conv2D)              (None, 128, 128, 64) 36928       activation_22[0][0]              \n",
            "__________________________________________________________________________________________________\n",
            "batch_normalization_23 (BatchNo (None, 128, 128, 64) 256         conv2d_19[0][0]                  \n",
            "__________________________________________________________________________________________________\n",
            "activation_23 (Activation)      (None, 128, 128, 64) 0           batch_normalization_23[0][0]     \n",
            "__________________________________________________________________________________________________\n",
            "conv2d_transpose_4 (Conv2DTrans (None, 256, 256, 32) 8224        activation_23[0][0]              \n",
            "__________________________________________________________________________________________________\n",
            "concatenate_4 (Concatenate)     (None, 256, 256, 64) 0           activation_1[0][0]               \n",
            "                                                                 conv2d_transpose_4[0][0]         \n",
            "__________________________________________________________________________________________________\n",
            "batch_normalization_24 (BatchNo (None, 256, 256, 64) 256         concatenate_4[0][0]              \n",
            "__________________________________________________________________________________________________\n",
            "activation_24 (Activation)      (None, 256, 256, 64) 0           batch_normalization_24[0][0]     \n",
            "__________________________________________________________________________________________________\n",
            "conv2d_20 (Conv2D)              (None, 256, 256, 32) 18464       activation_24[0][0]              \n",
            "__________________________________________________________________________________________________\n",
            "batch_normalization_25 (BatchNo (None, 256, 256, 32) 128         conv2d_20[0][0]                  \n",
            "__________________________________________________________________________________________________\n",
            "activation_25 (Activation)      (None, 256, 256, 32) 0           batch_normalization_25[0][0]     \n",
            "__________________________________________________________________________________________________\n",
            "conv2d_21 (Conv2D)              (None, 256, 256, 32) 9248        activation_25[0][0]              \n",
            "__________________________________________________________________________________________________\n",
            "batch_normalization_26 (BatchNo (None, 256, 256, 32) 128         conv2d_21[0][0]                  \n",
            "__________________________________________________________________________________________________\n",
            "activation_26 (Activation)      (None, 256, 256, 32) 0           batch_normalization_26[0][0]     \n",
            "__________________________________________________________________________________________________\n",
            "conv2d_22 (Conv2D)              (None, 256, 256, 1)  33          activation_26[0][0]              \n",
            "==================================================================================================\n",
            "Total params: 31,126,497\n",
            "Trainable params: 31,110,497\n",
            "Non-trainable params: 16,000\n",
            "__________________________________________________________________________________________________\n"
…
